…
  tensorflow.keras
#+end_example

#+BEGIN_SRC jupyter-python
  %cat $summary_path
#+END_SRC

#+RESULTS:
#+begin_example
  Model: "functional_1"
  __________________________________________________________________________________________________
  Layer (type)                    Output Shape         Param #     Connected to
  ==================================================================================================
  input_1 (InputLayer)            [(None, 16384, 1)]   0
  __________________________________________________________________________________________________
  encode0 (Sequential)            (None, 16384, 64)    13120       input_1[0][0]
  __________________________________________________________________________________________________
  mp_encode0 (MaxPooling1D)       (None, 8192, 64)     0           encode0[0][0]
  __________________________________________________________________________________________________
  encode1 (Sequential)            (None, 8192, 128)    75008       mp_encode0[0][0]
  __________________________________________________________________________________________________
  mp_encode1 (MaxPooling1D)       (None, 4096, 128)    0           encode1[0][0]
  __________________________________________________________________________________________________
  encode2 (Sequential)            (None, 4096, 256)    297472      mp_encode1[0][0]
  __________________________________________________________________________________________________
  mp_encode2 (MaxPooling1D)       (None, 2048, 256)    0           encode2[0][0]
  __________________________________________________________________________________________________
  encode3 (Sequential)            (None, 2048, 512)    1184768     mp_encode2[0][0]
  __________________________________________________________________________________________________
  mp_encode3 (MaxPooling1D)       (None, 1024, 512)    0           encode3[0][0]
  __________________________________________________________________________________________________
  encode4 (Sequential)            (None, 1024, 512)    1577984     mp_encode3[0][0]
  __________________________________________________________________________________________________
  mp_encode4 (MaxPooling1D)       (None, 512, 512)     0           encode4[0][0]
  __________________________________________________________________________________________________
  encode5 (Sequential)            (None, 512, 512)     1577984     mp_encode4[0][0]
  __________________________________________________________________________________________________
  mp_encode5 (MaxPooling1D)       (None, 256, 512)     0           encode5[0][0]
  __________________________________________________________________________________________________
  encode6 (Sequential)            (None, 256, 512)     1577984     mp_encode5[0][0]
  __________________________________________________________________________________________________
  mp_encode6 (MaxPooling1D)       (None, 128, 512)     0           encode6[0][0]
  __________________________________________________________________________________________________
  encode7 (Sequential)            (None, 128, 512)     1577984     mp_encode6[0][0]
  __________________________________________________________________________________________________
  mp_encode7 (MaxPooling1D)       (None, 64, 512)      0           encode7[0][0]
  __________________________________________________________________________________________________
  encode8 (Sequential)            (None, 64, 512)      1577984     mp_encode7[0][0]
  __________________________________________________________________________________________________
  mp_encode8 (MaxPooling1D)       (None, 32, 512)      0           encode8[0][0]
  __________________________________________________________________________________________________
  two_conv_center (Sequential)    (None, 32, 1024)     4728832     mp_encode8[0][0]
  __________________________________________________________________________________________________
  conv_transpose_decoder8 (Sequen (None, 64, 512)      1051136     two_conv_center[0][0]
  __________________________________________________________________________________________________
  decoder8 (Concatenate)          (None, 64, 1024)     0           encode8[0][0]
                                                                   conv_transpose_decoder8[0][0]
  __________________________________________________________________________________________________
  two_conv_decoder8 (Sequential)  (None, 64, 512)      2364416     decoder8[0][0]
  __________________________________________________________________________________________________
  conv_transpose_decoder7 (Sequen (None, 128, 512)     526848      two_conv_decoder8[0][0]
  __________________________________________________________________________________________________
  decoder7 (Concatenate)          (None, 128, 1024)    0           encode7[0][0]
                                                                   conv_transpose_decoder7[0][0]
  __________________________________________________________________________________________________
  two_conv_decoder7 (Sequential)  (None, 128, 512)     2364416     decoder7[0][0]
  __________________________________________________________________________________________________
  conv_transpose_decoder6 (Sequen (None, 256, 512)     526848      two_conv_decoder7[0][0]
  __________________________________________________________________________________________________
  decoder6 (Concatenate)          (None, 256, 1024)    0           encode6[0][0]
                                                                   conv_transpose_decoder6[0][0]
  __________________________________________________________________________________________________
  two_conv_decoder6 (Sequential)  (None, 256, 512)     2364416     decoder6[0][0]
  __________________________________________________________________________________________________
  conv_transpose_decoder5 (Sequen (None, 512, 512)     526848      two_conv_decoder6[0][0]
  __________________________________________________________________________________________________
  decoder5 (Concatenate)          (None, 512, 1024)    0           encode5[0][0]
                                                                   conv_transpose_decoder5[0][0]
  __________________________________________________________________________________________________
  two_conv_decoder5 (Sequential)  (None, 512, 512)     2364416     decoder5[0][0]
  __________________________________________________________________________________________________
  conv_transpose_decoder4 (Sequen (None, 1024, 512)    526848      two_conv_decoder5[0][0]
  __________________________________________________________________________________________________
  decoder4 (Concatenate)          (None, 1024, 1024)   0           encode4[0][0]
                                                                   conv_transpose_decoder4[0][0]
  __________________________________________________________________________________________________
  two_conv_decoder4 (Sequential)  (None, 1024, 512)    2364416     decoder4[0][0]
  __________________________________________________________________________________________________
  conv_transpose_decoder3 (Sequen (None, 2048, 512)    526848      two_conv_decoder4[0][0]
  __________________________________________________________________________________________________
  decoder3 (Concatenate)          (None, 2048, 1024)   0           encode3[0][0]
                                                                   conv_transpose_decoder3[0][0]
  __________________________________________________________________________________________________
  two_conv_decoder3 (Sequential)  (None, 2048, 512)    2364416     decoder3[0][0]
  __________________________________________________________________________________________________
  conv_transpose_decoder2 (Sequen (None, 4096, 256)    263424      two_conv_decoder3[0][0]
  __________________________________________________________________________________________________
  decoder2 (Concatenate)          (None, 4096, 512)    0           encode2[0][0]
                                                                   conv_transpose_decoder2[0][0]
  __________________________________________________________________________________________________
  two_conv_decoder2 (Sequential)  (None, 4096, 256)    592384      decoder2[0][0]
  __________________________________________________________________________________________________
  conv_transpose_decoder1 (Sequen (None, 8192, 128)    66176       two_conv_decoder2[0][0]
  __________________________________________________________________________________________________
  decoder1 (Concatenate)          (None, 8192, 256)    0           encode1[0][0]
                                                                   conv_transpose_decoder1[0][0]
  __________________________________________________________________________________________________
  two_conv_decoder1 (Sequential)  (None, 8192, 128)    148736      decoder1[0][0]
  __________________________________________________________________________________________________
  conv_transpose_decoder0 (Sequen (None, 16384, 64)    16704       two_conv_decoder1[0][0]
  __________________________________________________________________________________________________
  decoder0 (Concatenate)          (None, 16384, 128)   0           encode0[0][0]
                                                                   conv_transpose_decoder0[0][0]
  __________________________________________________________________________________________________
  two_conv_decoder0 (Sequential)  (None, 16384, 64)    37504       decoder0[0][0]
  __________________________________________________________________________________________________
  conv1d_38 (Conv1D)              (None, 16384, 1)     65          two_conv_decoder0[0][0]
  ==================================================================================================
  Total params: 33,185,985
  Trainable params: 33,146,689
  Non-trainable params: 39,296
  __________________________________________________________________________________________________
#+end_example

*** Reading out tensorboard logs from mlflow logs
    :PROPERTIES:
…
